…
ss="token punctuation">(</span>net<span class="token punctuation">)</span><span aria-hidden="true" class="line-numbers-rows"><span></span><span></span><span></span><span></span><span></span><span></span><span></span><span></span><span></span><span></span><span></span><span></span><span></span><span></span><span></span><span></span><span></span><span></span><span></span><span></span><span></span><span></span><span></span><span></span><span></span><span></span><span></span><span></span><span></span><span></span><span></span><span></span><span></span></span></code></pre><pre><code>LeNet5(  (conv1): Conv2d(1, 6, kernel_size=(5, 5), stride=(1, 1))  (conv2): Conv2d(6, 16, kernel_size=(5, 5), stride=(1, 1))  (fc1): Linear(in_features=400, out_features=120, bias=True)  (fc2): Linear(in_features=120, out_features=84, bias=True)  (fc3): Linear(in_features=84, out_features=10, bias=True))</code></pre><h1 id="AlexNet"><a href="#AlexNet" class="headerlink" title="AlexNet"></a>AlexNet</h1><p>2012,<a href="https://papers.nips.cc/paper/4824-imagenet-classification-with-deep-convolutional-neural-networks.pdf" target="_blank" rel="noopener">Alex Krizhevsky</a>可以算作LeNet的一个更深和更广的版本，可以用来学习重复复杂的对象。</p><ul><li>用rectified linear units（ReLU)得到非线性；  </
…
odel <span class="token operator">=</span> torchvision<span class="token punctuation">.</span>models<span class="token punctuation">.</span>alexnet<span class="token punctuation">(</span>pretrained<span class="token operator">=</span><span class="token boolean">False</span><span class="token punctuation">)</span> <span class="token keyword">print</span><span class="token punctuation">(</span>model<span class="token punctuation">)</span><span aria-hidden="true" class="line-numbers-rows"><span></span><span></span><span></span></span></code></pre><pre><code>AlexNet(  (features): Sequential(    (0): Conv2d(3, 64, kernel_size=(11, 11), stride=(4, 4), padding=(2, 2))    (1): ReLU(inplace=True)    (2): MaxPool2d(kernel_size=3, stride=2, padding=0, dilation=1, ceil_mode=False)    (3): Conv2d(64, 192, kernel_size=(5, 5), stride=(1, 1), padding=(2, 2))    (4): ReLU(inplace=True)    (5): MaxPool2d(kernel_size=3, stride=2, padding=0, dilation=1, ceil_mode=False)    (6): Conv2d(192, 384, kernel_size=(3, 3), stride=(1, 1), padding=(1, 1))    (7): ReLU(inplace=True)    (8): Conv2d(384, 256, kernel_size=(3, 3), stride=(1, 1), padding=(1, 1))    (9): ReLU(inplace=True)    (10): Conv2d(256, 256, kernel_size=(3, 3), stride=(1, 1), padding=(1, 1))    (11): ReLU(inplace=True)    (12): MaxPool2d(kernel_size=3, stride=2, padding=0, dilation=1, ceil_mode=False)  )  (avgpool): AdaptiveAvgPool2d(output_size=(6, 6))  (classifier): Sequential(    (0): Dropout(p=0.5, inplace=False)    (1): Linear(in_features=9216, out_features=4096, bias=True)    (2): ReLU(inplace=True)    (3): Dropout(p=0.5, inplace=False)    (4): Linear(in_features=4096, out_features=4096, bias=True)    (5): ReLU(inplace=True)    (6): Linear(in_features=4096, out_features=1000, bias=True)  ))</code></pre><p># </p><h1 id="VGG"><a href="#VGG" class="headerlink" title="VGG"></a>VGG</h1><p>2015,牛津的<a href="https://arxiv.org/pdf/1409.1556.pdf" target="_blank" rel="noopener">VGG</a></p><ul><li>每个卷积层中使用更小的3×3filters，并将它们合并组成卷积序列</li><li>多个3×3卷积序列可以模拟更大的接收场的效果</li><li>每次的图像像素缩小一倍，卷积核的数量增加一倍</li></ul><p>VGG有多个版本，也算是比较稳定和经典的模型。它的特点是连续conv多计算量巨大
…
visionmodel <span class="token operator">=</span> torchvision<span class="token punctuation">.</span>models<span class="token punctuation">.</span>vgg16<span class="token punctuation">(</span>pretrained<span class="token operator">=</span><span class="token boolean">False</span><span class="token punctuation">)</span><span class="token keyword">print</span><span class="token punctuation">(</span>model<span class="token punctuation">)</span><span aria-hidden="true" class="line-numbers-rows"><span></span><span></span><span></span></span></code></pre><pre><code>VGG(  (features): Sequential(    (0): Conv2d(3, 64, kernel_size=(3, 3), stride=(1, 1), padding=(1, 1))    (1): ReLU(inplace=True)    (2): Conv2d(64, 64, kernel_size=(3, 3), stride=(1, 1), padding=(1, 1))    (3): ReLU(inplace=True)    (4): MaxPool2d(kernel_size=2, stride=2, padding=0, dilation=1, ceil_mode=False)    (5): Conv2d(64, 128, kernel_size=(3, 3), stride=(1, 1), padding=(1, 1))    (6): ReLU(inplace=True)    (7): Conv2d(128, 128, kernel_size=(3, 3), stride=(1, 1), padding=(1, 1))    (8): ReLU(inplace=True)    (9): MaxPool2d(kernel_size=2, stride=2, padding=0, dilation=1, ceil_mode=False)    (10): Conv2d(128, 256, kernel_size=(3, 3), stride=(1, 1), padding=(1, 1))    (11): ReLU(inplace=True)    (12): Conv2d(256, 256, kernel_size=(3, 3), stride=(1, 1), padding=(1, 1))    (13): ReLU(inplace=True)    (14): Conv2d(256, 256, kernel_size=(3, 3), stride=(1, 1), padding=(1, 1))    (15): ReLU(inplace=True)    (16): MaxPool2d(kernel_size=2, stride=2, padding=0, dilation=1, ceil_mode=False)    (17): Conv2d(256, 512, kernel_size=(3, 3), stride=(1, 1), padding=(1, 1))    (18): ReLU(inplace=True)    (19): Conv2d(512, 512, kernel_size=(3, 3), stride=(1, 1), padding=(1, 1))    (20): ReLU(inplace=True)    (21): Conv2d(512, 512, kernel_size=(3, 3), stride=(1, 1), padding=(1, 1))    (22): ReLU(inplace=True)    (23): MaxPool2d(kernel_size=2, stride=2, padding=0, dilation=1, ceil_mode=False)    (24): Conv2d(512, 512, kernel_size=(3, 3), stride=(1, 1), padding=(1, 1))    (25): ReLU(inplace=True)    (26): Conv2d(512, 512, kernel_size=(3, 3), stride=(1, 1), padding=(1, 1))    (27): ReLU(inplace=True)    (28): Conv2d(512, 512, kernel_size=(3, 3), stride=(1, 1), padding=(1, 1))    (29): ReLU(inplace=True)    (30): MaxPool2d(kernel_size=2, stride=2, padding=0, dilation=1, ceil_mode=False)  )  (avgpool): AdaptiveAvgPool2d(output_size=(7, 7))  (classifier): Sequential(    (0): Linear(in_features=25088, out_features=4096, bias=True)    (1): ReLU(inplace=True)    (2): Dropout(p=0.5, inplace=False)    (3): Linear(in_features=4096, out_features=4096, bias=True)    (4): ReLU(inplace=True)    (5): Dropout(p=0.5, inplace=False)    (6): Linear(in_features=4096, out_features=1000, bias=True)  ))</code></pre><h1 id="GoogLeNet-Inception"><a href="#GoogLeNet-Inception" class="headerlink" title="GoogLeNet(Inception)"></a>GoogLeNet(Inception)</h1><p>2014,<a href="https://arxiv.org/abs/1512.00567" target="_blank" rel="noopener">Google Christian Szegedy</a></p><ul><li>使用1×1卷积块（NiN)来减少特征数量，这通常被称为“瓶颈”，可以减少神经网络的计算负担。  </li><li>每个池化层之前，增加feature ma
…
tor">=</span> torchvision<span class="token punctuation">.</span>models<span class="token punctuation">.</span>inception_v3<span class="token punctuation">(</span>pretrained<span class="token operator">=</span><span class="token boolean">False</span><span class="token punctuation">)</span><span class="token keyword">print</span><span class="token punctuation">(</span>model<span class="token punctuation">)</span><span aria-hidden="true" class="line-numbers-rows"><span></span><span></span><span></span><span></span></span></code></pre><pre><code>Inception3(  (Conv2d_1a_3x3): BasicConv2d(    (conv): Conv2d(3, 32, kernel_size=(3, 3), stride=(2, 2), bias=False)    (bn): BatchNorm2d(32, eps=0.001, momentum=0.1, affine=True, track_running_stats=True)  )  (Conv2d_2a_3x3): BasicConv2d(    (conv): Conv2d(32, 32, kernel_size=(3, 3), stride=(1, 1), bias=False)    (bn): BatchNorm2d(32, eps=0.001, momentum=0.1, affine=True, track_running_stats=True)  )  (Conv2d_2b_3x3): BasicConv2d(    (conv): Conv2d(32, 64, kernel_size=(3, 3), stride=(1, 1), padding=(1, 1), bias=False)    (bn): BatchNorm2d(64, eps=0.001, momentum=0.1, affine=True, track_running_stats=True)  )  (Conv2d_3b_1x1): BasicConv2d(    (conv): Conv2d(64, 80, kernel_size=(1, 1), stride=(1, 1), bias=False)    (bn): BatchNorm2d(80, eps=0.001, momentum=0.1, affine=True, track_running_stats=True)  )  (Conv2d_4a_3x3): BasicConv2d(    (conv): Conv2d(80, 192, kernel_size=(3, 3), stride=(1, 1), bias=False)    (bn): BatchNorm2d(192, eps=0.001, momentum=0.1, affine=True, track_running_stats=True)  )  (Mixed_5b): InceptionA(    (branch1x1): BasicConv2d(      (conv): Conv2d(192, 64, kernel_size=(1, 1), stride=(1, 1), bias=False)      (bn): BatchNorm2d(64, eps=0.001, momentum=0.1, affine=True, track_running_stats=True)    )    (branch5x5_1): BasicConv2d(      (conv): Conv2d(192, 48, kernel_size=(1, 1), stride=(1, 1), bias=False)      (bn): BatchNorm2d(48, eps=0.001, momentum=0.1, affine=True, track_running_stats=True)    )    (branch5x5_2): BasicConv2d(      (conv): Conv2d(48, 64, kernel_size=(5, 5), stride=(1, 1), padding=(2, 2), bias=False)      (bn): BatchNorm2d(64, eps=0.001, momentum=0.1, affine=True, track_running_stats=True)    )    (branch3x3dbl_1): BasicConv2d(      (conv): Conv2d(192, 64, kernel_size=(1, 1), stride=(1, 1), bias=False)      (bn): BatchNorm2d(64, eps=0.001, momentum=0.1, affine=True, track_running_stats=True)    )    (branch3x3dbl_2): BasicConv2d(      (conv): Conv2d(64, 96, kernel_size=(3, 3), stride=(1, 1), padding=(1, 1), bias=False)      (bn): BatchNorm2d(96, eps=0.001, momentum=0.1, affine=True, track_running_stats=True)    )    (branch3x3dbl_3): BasicConv2d(      (conv): Conv2d(96, 96, kernel_size=(3, 3), stride=(1, 1), padding=(1, 1), bias=False)      (bn): BatchNorm2d(96, eps=0.001, momentum=0.1, affine=True, track_running_stats=True)    )    (branch_pool): BasicConv2d(      (conv): Conv2d(192, 32, kernel_size=(1, 1), stride=(1, 1), bias=False)      (bn): BatchNorm2d(32, eps=0.001, momentum=0.1, affine=True, track_running_stats=True)    )  )  (Mixed_5c): InceptionA(    (branch1x1): BasicConv2d(      (conv): Conv2d(256, 64, kernel_size=(1, 1), stride=(1, 1), bias=False)      (bn): BatchNorm2d(64, eps=0.001, momentum=0.1, affine=True, track_running_stats=True)    )    (branch5x5_1): BasicConv2d(      (conv): Conv2d(256, 48, kernel_size=(1, 1), stride=(1, 1), bias=False)      (bn): BatchNorm2d(48, eps=0.001, momentum=0.1, affine=True, track_running_stats=True)    )    (branch5x5_2): BasicConv2d(      (conv): Conv2d(48, 64, kernel_size=(5, 5), stride=(1, 1), padding=(2, 2), bias=False)      (bn): BatchNorm2d(64, eps=0.001, momentum=0.1, affine=True, track_running_stats=True)    )    (branch3x3dbl_1): BasicConv2d(      (conv): Conv2d(256, 64, kernel_size=(1, 1), stride=(1, 1), bias=False)      (bn): BatchNorm2d(64, eps=0.001, momentum=0.1, affine=True, track_running_stats=True)    )    (branch3x3dbl_2): BasicConv2d(      (conv): Conv2d(64, 96, kernel_size=(3, 3), stride=(1, 1), padding=(1, 1), bias=False)      (bn): BatchNorm2d(96, eps=0.001, momentum=0.1, affine=True, track_running_stats=True)    )    (branch3x3dbl_3): BasicConv2d(      (conv): Conv2d(96, 96, kernel_size=(3, 3), stride=(1, 1), padding=(1, 1), bias=False)      (bn): BatchNorm2d(96, eps=0.001, momentum=0.1, affine=True, track_running_stats=True)    )    (branch_pool): BasicConv2d(      (conv): Conv2d(256, 64, kernel_size=(1, 1), stride=(1, 1), bias=False)      (bn): BatchNorm2d(64, eps=0.001, momentum=0.1, affine=True, track_running_stats=True)    )  )  (Mixed_5d): InceptionA(    (branch1x1): BasicConv2d(      (conv): Conv2d(288, 64, kernel_size=(1, 1), stride=(1, 1), bias=False)      (bn): BatchNorm2d(64, eps=0.001, momentum=0.1, affine=True, track_running_stats=True)    )    (branch5x5_1): BasicConv2d(      (conv): Conv2d(288, 48, kernel_size=(1, 1), stride=(1, 1), bias=False)      (bn): BatchNorm2d(48, eps=0.001, momentum=0.1, affine=True, track_running_stats=True)    )    (branch5x5_2): BasicConv2d(      (conv): Conv2d(48, 64, kernel_size=(5, 5), stride=(1, 1), padding=(2, 2), bias=False)      (bn): BatchNorm2d(64, eps=0.001, momentum=0.1, affine=True, track_running_stats=True)    )    (branch3x3dbl_1): BasicConv2d(      (conv): Conv2d(288, 64, kernel_size=(1, 1), stride=(1, 1), bias=False)      (bn): BatchNorm2d(64, eps=0.001, momentum=0.1, affine=True, track_running_stats=True)    )    (branch3x3dbl_2): BasicConv2d(      (conv): Conv2d(64, 96, kernel_size=(3, 3), stride=(1, 1), padding=(1, 1), bias=False)      (bn): BatchNorm2d(96, eps=0.001, momentum=0.1, affine=True, track_running_stats=True)    )    (branch3x3dbl_3): BasicConv2d(      (conv): Conv2d(96, 96, kernel_size=(3, 3), stride=(1, 1), padding=(1, 1), bias=False)      (bn): BatchNorm2d(96, eps=0.001, momentum=0.1, affine=True, track_running_stats=True)    )    (branch_pool): BasicConv2d(      (conv): Conv2d(288, 64, kernel_size=(1, 1), stride=(1, 1), bias=False)      (bn): BatchNorm2d(64, eps=0.001, momentum=0.1, affine=True, track_running_stats=True)    )  )  (Mixed_6a): InceptionB(    (branch3x3): BasicConv2d(      (conv): Conv2d(288, 384, kernel_size=(3, 3), stride=(2, 2), bias=False)      (bn): BatchNorm2d(384, eps=0.001, momentum=0.1, affine=True, track_running_stats=True)    )    (branch3x3dbl_1): BasicConv2d(      (conv): Conv2d(288, 64, kernel_size=(1, 1), stride=(1, 1), bias=False)      (bn): BatchNorm2d(64, eps=0.001, momentum=0.1, affine=True, track_running_stats=True)    )    (branch3x3dbl_2): BasicConv2d(      (conv): Conv2d(64, 96, kernel_size=(3, 3), stride=(1, 1), padding=(1, 1), bias=False)      (bn): BatchNorm2d(96, eps=0.001, momentum=0.1, affine=True, track_running_stats=True)    )    (branch3x3dbl_3): BasicConv2d(      (conv): Conv2d(96, 96, kernel_size=(3, 3), stride=(2, 2), bias=False)      (bn): BatchNorm2d(96, eps=0.001, momentum=0.1, affine=True, track_running_stats=True)    )  )  (Mixed_6b): InceptionC(    (branch1x1): BasicConv2d(      (conv): Conv2d(768, 192, kernel_size=(1, 1), stride=(1, 1), bias=False)      (bn): BatchNorm2d(192, eps=0.001, momentum=0.1, affine=True, track_running_stats=True)    )    (branch7x7_1): BasicConv2d(      (conv): Conv2d(768, 128, kernel_size=(1, 1), stride=(1, 1), bias=False)      (bn): BatchNorm2d(128, eps=0.001, momentum=0.1, affine=True, track_running_stats=True)    )    (branch7x7_2): BasicConv2d(      (conv): Conv2d(128, 128, kernel_size=(1, 7), stride=(1, 1), padding=(0, 3), bias=False)      (bn): BatchNorm2d(128, eps=0.001, momentum=0.1, affine=True, track_running_stats=True)    )    (branch7x7_3): BasicConv2d(      (conv): Conv2d(128, 192, kernel_size=(7, 1), stride=(1, 1), padding=(3, 0), bias=False)      (bn): BatchNorm2d(192, eps=0.001, momentum=0.1, affine=True, track_running_stats=True)    )    (branch7x7dbl_1): BasicConv2d(      (conv): Conv2d(768, 128, kernel_size=(1, 1), stride=(1, 1), bias=False)      (bn): BatchNorm2d(128, eps=0.001, momentum=0.1, affine=True, track_running_stats=True)    )    (branch7x7dbl_2): BasicConv2d(      (conv): Conv2d(128, 128, kernel_size=(7, 1), stride=(1, 1), padding=(3, 0), bias=False)      (bn): BatchNorm2d(128, eps=0.001, momentum=0.1, affine=True, track_running_stats=True)    )    (branch7x7dbl_3): BasicConv2d(      (conv): Conv2d(128, 128, kernel_size=(1, 7), stride=(1, 1), padding=(0, 3), bias=False)      (bn): BatchNorm2d(128, eps=0.001, momentum=0.1, affine=True, track_running_stats=True)    )    (branch7x7dbl_4): BasicConv2d(      (conv): Conv2d(128, 128, kernel_size=(7, 1), stride=(1, 1), padding=(3, 0), bias=False)      (bn): BatchNorm2d(128, eps=0.001, momentum=0.1, affine=True, track_running_stats=True)    )    (branch7x7dbl_5): BasicConv2d(      (conv): Conv2d(128, 192, kernel_size=(1, 7), stride=(1, 1), padding=(0, 3), bias=False)      (bn): BatchNorm2d(192, eps=0.001, momentum=0.1, affine=True, track_running_stats=True)    )    (branch_pool): BasicConv2d(      (conv): Conv2d(768, 192, kernel_size=(1, 1), stride=(1, 1), bias=False)      (bn): BatchNorm2d(192, eps=0.001, momentum=0.1, affine=True, track_running_stats=True)    )  )  (Mixed_6c): InceptionC(    (branch1x1): BasicConv2d(      (conv): Conv2d(768, 192, kernel_size=(1, 1), stride=(1, 1), bias=False)      (bn): BatchNorm2d(192, eps=0.001, momentum=0.1, affine=True, track_running_stats=True)    )    (branch7x7_1): BasicConv2d(      (conv): Conv2d(768, 160, kernel_size=(1, 1), stride=(1, 1), bias=False)      (bn): BatchNorm2d(160, eps=0.001, momentum=0.1, affine=True, track_running_stats=True)    )    (branch7x7_2): BasicConv2d(      (conv): Conv2d(160, 160, kernel_size=(1, 7), stride=(1, 1), padding=(0, 3), bias=False)      (bn): BatchNorm2d(160, eps=0.001, momentum=0.1, affine=True, track_running_stats=True)    )    (branch7x7_3): BasicConv2d(      (conv): Conv2d(160, 192, kernel_size=(7, 1), stride=(1, 1), padding=(3, 0), bias=False)      (bn): BatchNorm2d(192, eps=0.001, momentum=0.1, affine=True, track_running_stats=True)    )    (branch7x7dbl_1): BasicConv2d(      (conv): Conv2d(768, 160, kernel_size=(1, 1), stride=(1, 1), bias=False)      (bn): BatchNorm2d(160, eps=0.001, momentum=0.1, affine=True, track_running_stats=True)    )    (branch7x7dbl_2): BasicConv2d(      (conv): Conv2d(160, 160, kernel_size=(7, 1), stride=(1, 1), padding=(3, 0), bias=False)      (bn): BatchNorm2d(160, eps=0.001, momentum=0.1, affine=True, track_running_stats=True)    )    (branch7x7dbl_3): BasicConv2d(      (conv): Conv2d(160, 160, kernel_size=(1, 7), stride=(1, 1), padding=(0, 3), bias=False)      (bn): BatchNorm2d(160, eps=0.001, momentum=0.1, affine=True, track_running_stats=True)    )    (branch7x7dbl_4): BasicConv2d(      (conv): Conv2d(160, 160, kernel_size=(7, 1), stride=(1, 1), padding=(3, 0), bias=False)      (bn): BatchNorm2d(160, eps=0.001, momentum=0.1, affine=True, track_running_stats=True)    )    (branch7x7dbl_5): BasicConv2d(      (conv): Conv2d(160, 192, kernel_size=(1, 7), stride=(1, 1), padding=(0, 3), bias=False)      (bn): BatchNorm2d(192, eps=0.001, momentum=0.1, affine=True, track_running_stats=True)    )    (branch_pool): BasicConv2d(      (conv): Conv2d(768, 192, kernel_size=(1, 1), stride=(1, 1), bias=False)      (bn): BatchNorm2d(192, eps=0.001, momentum=0.1, affine=True, track_running_stats=True)    )  )  (Mixed_6d): InceptionC(    (branch1x1): BasicConv2d(      (conv): Conv2d(768, 192, kernel_size=(1, 1), stride=(1, 1), bias=False)      (bn): BatchNorm2d(192, eps=0.001, momentum=0.1, affine=True, track_running_stats=True)    )    (branch7x7_1): BasicConv2d(      (conv): Conv2d(768, 160, kernel_size=(1, 1), stride=(1, 1), bias=False)      (bn): BatchNorm2d(160, eps=0.001, momentum=0.1, affine=True, track_running_stats=True)    )    (branch7x7_2): BasicConv2d(      (conv): Conv2d(160, 160, kernel_size=(1, 7), stride=(1, 1), padding=(0, 3), bias=False)      (bn): BatchNorm2d(160, eps=0.001, momentum=0.1, affine=True, track_running_stats=True)    )    (branch7x7_3): BasicConv2d(      (conv): Conv2d(160, 192, kernel_size=(7, 1), stride=(1, 1), padding=(3, 0), bias=False)      (bn): BatchNorm2d(192, eps=0.001, momentum=0.1, affine=True, track_running_stats=True)    )    (branch7x7dbl_1): BasicConv2d(      (conv): Conv2d(768, 160, kernel_size=(1, 1), stride=(1, 1), bias=False)      (bn): BatchNorm2d(160, eps=0.001, momentum=0.1, affine=True, track_running_stats=True)    )    (branch7x7dbl_2): BasicConv2d(      (conv): Conv2d(160, 160, kernel_size=(7, 1), stride=(1, 1), padding=(3, 0), bias=False)      (bn): BatchNorm2d(160, eps=0.001, momentum=0.1, affine=True, track_running_stats=True)    )    (branch7x7dbl_3): BasicConv2d(      (conv): Conv2d(160, 160, kernel_size=(1, 7), stride=(1, 1), padding=(0, 3), bias=False)      (bn): BatchNorm2d(160, eps=0.001, momentum=0.1, affine=True, track_running_stats=True)    )    (branch7x7dbl_4): BasicConv2d(      (conv): Conv2d(160, 160, kernel_size=(7, 1), stride=(1, 1), padding=(3, 0), bias=False)      (bn): BatchNorm2d(160, eps=0.001, momentum=0.1, affine=True, track_running_stats=True)    )    (branch7x7dbl_5): BasicConv2d(      (conv): Conv2d(160, 192, kernel_size=(1, 7), stride=(1, 1), padding=(0, 3), bias=False)      (bn): BatchNorm2d(192, eps=0.001, momentum=0.1, affine=True, track_running_stats=True)    )    (branch_pool): BasicConv2d(      (conv): Conv2d(768, 192, kernel_size=(1, 1), stride=(1, 1), bias=False)      (bn): BatchNorm2d(192, eps=0.001, momentum=0.1, affine=True, track_running_stats=True)    )  )  (Mixed_6e): InceptionC(    (branch1x1): BasicConv2d(      (conv): Conv2d(768, 192, kernel_size=(1, 1), stride=(1, 1), bias=False)      (bn): BatchNorm2d(192, eps=0.001, momentum=0.1, affine=True, track_running_stats=True)    )    (branch7x7_1): BasicConv2d(      (conv): Conv2d(768, 192, kernel_size=(1, 1), stride=(1, 1), bias=False)      (bn): BatchNorm2d(192, eps=0.001, momentum=0.1, affine=True, track_running_stats=True)    )    (branch7x7_2): BasicConv2d(      (conv): Conv2d(192, 192, kernel_size=(1, 7), stride=(1, 1), padding=(0, 3), bias=False)      (bn): BatchNorm2d(192, eps=0.001, momentum=0.1, affine=True, track_running_stats=True)    )    (branch7x7_3): BasicConv2d(      (conv): Conv2d(192, 192, kernel_size=(7, 1), stride=(1, 1), padding=(3, 0), bias=False)      (bn): BatchNorm2d(192, eps=0.001, momentum=0.1, affine=True, track_running_stats=True)    )    (branch7x7dbl_1): BasicConv2d(      (conv): Conv2d(768, 192, kernel_size=(1, 1), stride=(1, 1), bias=False)      (bn): BatchNorm2d(192, eps=0.001, momentum=0.1, affine=True, track_running_stats=True)    )    (branch7x7dbl_2): BasicConv2d(      (conv): Conv2d(192, 192, kernel_size=(7, 1), stride=(1, 1), padding=(3, 0), bias=False)      (bn): BatchNorm2d(192, eps=0.001, momentum=0.1, affine=True, track_running_stats=True)    )    (branch7x7dbl_3): BasicConv2d(      (conv): Conv2d(192, 192, kernel_size=(1, 7), stride=(1, 1), padding=(0, 3), bias=False)      (bn): BatchNorm2d(192, eps=0.001, momentum=0.1, affine=True, track_running_stats=True)    )    (branch7x7dbl_4): BasicConv2d(      (conv): Conv2d(192, 192, kernel_size=(7, 1), stride=(1, 1), padding=(3, 0), bias=False)      (bn): BatchNorm2d(192, eps=0.001, momentum=0.1, affine=True, track_running_stats=True)    )    (branch7x7dbl_5): BasicConv2d(      (conv): Conv2d(192, 192, kernel_size=(1, 7), stride=(1, 1), padding=(0, 3), bias=False)      (bn): BatchNorm2d(192, eps=0.001, momentum=0.1, affine=True, track_running_stats=True)    )    (branch_pool): BasicConv2d(      (conv): Conv2d(768, 192, kernel_size=(1, 1), stride=(1, 1), bias=False)      (bn): BatchNorm2d(192, eps=0.001, momentum=0.1, affine=True, track_running_stats=True)    )  )  (AuxLogits): InceptionAux(    (conv0): BasicConv2d(      (conv): Conv2d(768, 128, kernel_size=(1, 1), stride=(1, 1), bias=False)      (bn): BatchNorm2d(128, eps=0.001, momentum=0.1, affine=True, track_running_stats=True)    )    (conv1): BasicConv2d(      (conv): Conv2d(128, 768, kernel_size=(5, 5), stride=(1, 1), bias=False)      (bn): BatchNorm2d(768, eps=0.001, momentum=0.1, affine=True, track_running_stats=True)    )    (fc): Linear(in_features=768, out_features=1000, bias=True)  )  (Mixed_7a): InceptionD(    (branch3x3_1): BasicConv2d(      (conv): Conv2d(768, 192, kernel_size=(1, 1), stride=(1, 1), bias=False)      (bn): BatchNorm2d(192, eps=0.001, momentum=0.1, affine=True, track_running_stats=True)    )    (branch3x3_2): BasicConv2d(      (conv): Conv2d(192, 320, kernel_size=(3, 3), stride=(2, 2), bias=False)      (bn): BatchNorm2d(320, eps=0.001, momentum=0.1, affine=True, track_running_stats=True)    )    (branch7x7x3_1): BasicConv2d(      (conv): Conv2d(768, 192, kernel_size=(1, 1), stride=(1, 1), bias=False)      (bn): BatchNorm2d(192, eps=0.001, momentum=0.1, affine=True, track_running_stats=True)    )    (branch7x7x3_2): BasicConv2d(      (conv): Conv2d(192, 192, kernel_size=(1, 7), stride=(1, 1), padding=(0, 3), bias=False)      (bn): BatchNorm2d(192, eps=0.001, momentum=0.1, affine=True, track_running_stats=True)    )    (branch7x7x3_3): BasicConv2d(      (conv): Conv2d(192, 192, kernel_size=(7, 1), stride=(1, 1), padding=(3, 0), bias=False)      (bn): BatchNorm2d(192, eps=0.001, momentum=0.1, affine=True, track_running_stats=True)    )    (branch7x7x3_4): BasicConv2d(      (conv): Conv2d(192, 192, kernel_size=(3, 3), stride=(2, 2), bias=False)      (bn): BatchNorm2d(192, eps=0.001, momentum=0.1, affine=True, track_running_stats=True)    )  )  (Mixed_7b): InceptionE(    (branch1x1): BasicConv2d(      (conv): Conv2d(1280, 320, kernel_size=(1, 1), stride=(1, 1), bias=False)      (bn): BatchNorm2d(320, eps=0.001, momentum=0.1, affine=True, track_running_stats=True)    )    (branch3x3_1): BasicConv2d(      (conv): Conv2d(1280, 384, kernel_size=(1, 1), stride=(1, 1), bias=False)      (bn): BatchNorm2d(384, eps=0.001, momentum=0.1, affine=True, track_running_stats=True)    )    (branch3x3_2a): BasicConv2d(      (conv): Conv2d(384, 384, kernel_size=(1, 3), stride=(1, 1), padding=(0, 1), bias=False)      (bn): BatchNorm2d(384, eps=0.001, momentum=0.1, affine=True, track_running_stats=True)    )    (branch3x3_2b): BasicConv2d(      (conv): Conv2d(384, 384, kernel_size=(3, 1), stride=(1, 1), padding=(1, 0), bias=False)      (bn): BatchNorm2d(384, eps=0.001, momentum=0.1, affine=True, track_running_stats=True)    )    (branch3x3dbl_1): BasicConv2d(      (conv): Conv2d(1280, 448, kernel_size=(1, 1), stride=(1, 1), bias=False)      (bn): BatchNorm2d(448, eps=0.001, momentum=0.1, affine=True, track_running_stats=True)    )    (branch3x3dbl_2): BasicConv2d(      (conv): Conv2d(448, 384, kernel_size=(3, 3), stride=(1, 1), padding=(1, 1), bias=False)      (bn): BatchNorm2d(384, eps=0.001, momentum=0.1, affine=True, track_running_stats=True)    )    (branch3x3dbl_3a): BasicConv2d(      (conv): Conv2d(384, 384, kernel_size=(1, 3), stride=(1, 1), padding=(0, 1), bias=False)      (bn): BatchNorm2d(384, eps=0.001, momentum=0.1, affine=True, track_running_stats=True)    )    (branch3x3dbl_3b): BasicConv2d(      (conv): Conv2d(384, 384, kernel_size=(3, 1), stride=(1, 1), padding=(1, 0), bias=False)      (bn): BatchNorm2d(384, eps=0.001, momentum=0.1, affine=True, track_running_stats=True)    )    (branch_pool): BasicConv2d(      (conv): Conv2d(1280, 192, kernel_size=(1, 1), stride=(1, 1), bias=False)      (bn): BatchNorm2d(192, eps=0.001, momentum=0.1, affine=True, track_running_stats=True)    )  )  (Mixed_7c): InceptionE(    (branch1x1): BasicConv2d(      (conv): Conv2d(2048, 320, kernel_size=(1, 1), stride=(1, 1), bias=False)      (bn): BatchNorm2d(320, eps=0.001, momentum=0.1, affine=True, track_running_stats=True)    )    (branch3x3_1): BasicConv2d(      (conv): Conv2d(2048, 384, kernel_size=(1, 1), stride=(1, 1), bias=False)      (bn): BatchNorm2d(384, eps=0.001, momentum=0.1, affine=True, track_running_stats=True)    )    (branch3x3_2a): BasicConv2d(      (conv): Conv2d(384, 384, kernel_size=(1, 3), stride=(1, 1), padding=(0, 1), bias=False)      (bn): BatchNorm2d(384, eps=0.001, momentum=0.1, affine=True, track_running_stats=True)    )    (branch3x3_2b): BasicConv2d(      (conv): Conv2d(384, 384, kernel_size=(3, 1), stride=(1, 1), padding=(1, 0), bias=False)      (bn): BatchNorm2d(384, eps=0.001, momentum=0.1, affine=True, track_running_stats=True)    )    (branch3x3dbl_1): BasicConv2d(      (conv): Conv2d(2048, 448, kernel_size=(1, 1), stride=(1, 1), bias=False)      (bn): BatchNorm2d(448, eps=0.001, momentum=0.1, affine=True, track_running_stats=True)    )    (branch3x3dbl_2): BasicConv2d(      (conv): Conv2d(448, 384, kernel_size=(3, 3), stride=(1, 1), padding=(1, 1), bias=False)      (bn): BatchNorm2d(384, eps=0.001, momentum=0.1, affine=True, track_running_stats=True)    )    (branch3x3dbl_3a): BasicConv2d(      (conv): Conv2d(384, 384, kernel_size=(1, 3), stride=(1, 1), padding=(0, 1), bias=False)      (bn): BatchNorm2d(384, eps=0.001, momentum=0.1, affine=True, track_running_stats=True)    )    (branch3x3dbl_3b): BasicConv2d(      (conv): Conv2d(384, 384, kernel_size=(3, 1), stride=(1, 1), padding=(1, 0), bias=False)      (bn): BatchNorm2d(384, eps=0.001, momentum=0.1, affine=True, track_running_stats=True)    )    (branch_pool): BasicConv2d(      (conv): Conv2d(2048, 192, kernel_size=(1, 1), stride=(1, 1), bias=False)      (bn): BatchNorm2d(192, eps=0.001, momentum=0.1, affine=True, track_running_stats=True)    )  )  (fc): Linear(in_features=2048, out_features=1000, bias=True))</code></pre><h1 id="ResNet"><a href="#ResNet" class="headerlink" title="ResNet"></a>ResNet</h1><p>2015,<a href="https://arxiv.org/abs/1512.03385" target="_blank" rel="noopener">Kaiming He,Xiangyu Zhang,Shaoqing Ren,Jian Sun.</a> </p><p>Kaiming He这个大神大家一定要记住,现在很多论文都有他参与（mask rcnn，focal loss），Jian Sun老师，旷视科技的首席科学家。googlenet已经很深了，ResNrt可以做到更深，通过残差计算，可以
…
port</span> torchvisionmodel <span class="token operator">=</span> torchvision<span class="token punctuation">.</span>models<span class="token punctuation">.</span>resnet18<span class="token punctuation">(</span>pretrained<span class="token operator">=</span><span class="token boolean">False</span><span class="token punctuation">)</span><span class="token keyword">print</span><span class="token punctuation">(</span>model<span class="token punctuation">)</span><span aria-hidden="true" class="line-numbers-rows"><span></span><span></span><span></span></span></code></pre><pre><code>ResNet(  (conv1): Conv2d(3, 64, kernel_size=(7, 7), stride=(2, 2), padding=(3, 3), bias=False)  (bn1): BatchNorm2d(64, eps=1e-05, momentum=0.1, affine=True, track_running_stats=True)  (relu): ReLU(inplace=True)  (maxpool): MaxPool2d(kernel_size=3, stride=2, padding=1, dilation=1, ceil_mode=False)  (layer1): Sequential(    (0): BasicBlock(      (conv1): Conv2d(64, 64, kernel_size=(3, 3), stride=(1, 1), padding=(1, 1), bias=False)      (bn1): BatchNorm2d(64, eps=1e-05, momentum=0.1, affine=True, track_running_stats=True)      (relu): ReLU(inplace=True)      (conv2): Conv2d(64, 64, kernel_size=(3, 3), stride=(1, 1), padding=(1, 1), bias=False)      (bn2): BatchNorm2d(64, eps=1e-05, momentum=0.1, affine=True, track_running_stats=True)    )    (1): BasicBlock(      (conv1): Conv2d(64, 64, kernel_size=(3, 3), stride=(1, 1), padding=(1, 1), bias=False)      (bn1): BatchNorm2d(64, eps=1e-05, momentum=0.1, affine=True, track_running_stats=True)      (relu): ReLU(inplace=True)      (conv2): Conv2d(64, 64, kernel_size=(3, 3), stride=(1, 1), padding=(1, 1), bias=False)      (bn2): BatchNorm2d(64, eps=1e-05, momentum=0.1, affine=True, track_running_stats=True)    )  )  (layer2): Sequential(    (0): BasicBlock(      (conv1): Conv2d(64, 128, kernel_size=(3, 3), stride=(2, 2), padding=(1, 1), bias=False)      (bn1): BatchNorm2d(128, eps=1e-05, momentum=0.1, affine=True, track_running_stats=True)      (relu): ReLU(inplace=True)      (conv2): Conv2d(128, 128, kernel_size=(3, 3), stride=(1, 1), padding=(1, 1), bias=False)      (bn2): BatchNorm2d(128, eps=1e-05, momentum=0.1, affine=True, track_running_stats=True)      (downsample): Sequential(        (0): Conv2d(64, 128, kernel_size=(1, 1), stride=(2, 2), bias=False)        (1): BatchNorm2d(128, eps=1e-05, momentum=0.1, affine=True, track_running_stats=True)      )    )    (1): BasicBlock(      (conv1): Conv2d(128, 128, kernel_size=(3, 3), stride=(1, 1), padding=(1, 1), bias=False)      (bn1): BatchNorm2d(128, eps=1e-05, momentum=0.1, affine=True, track_running_stats=True)      (relu): ReLU(inplace=True)      (conv2): Conv2d(128, 128, kernel_size=(3, 3), stride=(1, 1), padding=(1, 1), bias=False)      (bn2): BatchNorm2d(128, eps=1e-05, momentum=0.1, affine=True, track_running_stats=True)    )  )  (layer3): Sequential(    (0): BasicBlock(      (conv1): Conv2d(128, 256, kernel_size=(3, 3), stride=(2, 2), padding=(1, 1), bias=False)      (bn1): BatchNorm2d(256, eps=1e-05, momentum=0.1, affine=True, track_running_stats=True)      (relu): ReLU(inplace=True)      (conv2): Conv2d(256, 256, kernel_size=(3, 3), stride=(1, 1), padding=(1, 1), bias=False)      (bn2): BatchNorm2d(256, eps=1e-05, momentum=0.1, affine=True, track_running_stats=True)      (downsample): Sequential(        (0): Conv2d(128, 256, kernel_size=(1, 1), stride=(2, 2), bias=False)        (1): BatchNorm2d(256, eps=1e-05, momentum=0.1, affine=True, track_running_stats=True)      )    )    (1): BasicBlock(      (conv1): Conv2d(256, 256, kernel_size=(3, 3), stride=(1, 1), padding=(1, 1), bias=False)      (bn1): BatchNorm2d(256, eps=1e-05, momentum=0.1, affine=True, track_running_stats=True)      (relu): ReLU(inplace=True)      (conv2): Conv2d(256, 256, kernel_size=(3, 3), stride=(1, 1), padding=(1, 1), bias=False)      (bn2): BatchNorm2d(256, eps=1e-05, momentum=0.1, affine=True, track_running_stats=True)    )  )  (layer4): Sequential(    (0): BasicBlock(      (conv1): Conv2d(256, 512, kernel_size=(3, 3), stride=(2, 2), padding=(1, 1), bias=False)      (bn1): BatchNorm2d(512, eps=1e-05, momentum=0.1, affine=True, track_running_stats=True)      (relu): ReLU(inplace=True)      (conv2): Conv2d(512, 512, kernel_size=(3, 3), stride=(1, 1), padding=(1, 1), bias=False)      (bn2): BatchNorm2d(512, eps=1e-05, momentum=0.1, affine=True, track_running_stats=True)      (downsample): Sequential(        (0): Conv2d(256, 512, kernel_size=(1, 1), stride=(2, 2), bias=False)        (1): BatchNorm2d(512, eps=1e-05, momentum=0.1, affine=True, track_running_stats=True)      )    )    (1): BasicBlock(      (conv1): Conv2d(512, 512, kernel_size=(3, 3), stride=(1, 1), padding=(1, 1), bias=False)      (bn1): BatchNorm2d(512, eps=1e-05, momentum=0.1, affine=True, track_running_stats=True)      (relu): ReLU(inplace=True)      (conv2): Conv2d(512, 512, kernel_size=(3, 3), stride=(1, 1), padding=(1, 1), bias=False)      (bn2): BatchNorm2d(512, eps=1e-05, momentum=0.1, affine=True, track_running_stats=True)    )  )  (avgpool): AdaptiveAvgPool2d(output_size=(1, 1))  (fc): Linear(in_features=512, out_features=1000, bias=True))</code></pre><h1 id="如何选择网络？"><a href="#如何选择网络？" class="headerlink" title="如何选择网络？"></a>如何选择网络？</h1><p><img src="cnn.png" alt><br>以上表格可以清楚的看到准确率和计算量之间的对比.小型图片分类任务，resnet18基本上已经可以了，如果真对准确度要求比较高，再选其他更好的网络架构。</p>]]></content>
      
      
      <categories>
          
          <category> PyTorch </category>
          
      </categories>
      
      
        <tags>
…
ken punctuation">)</span><span aria-hidden="true" class="line-numbers-rows"><span></span><span></span><span></span><span></span><span></span><span></span><span></span><span></span><span></span><span></span><span></span><span></span><span></span><span></span><span></span><span></span><span></span><span></span><span></span><span></span><span></span><span></span><span></span><span></span><span></span><span></span><span></span><span></span><span></span><span></span><span></span><span></span><span></span><span></span><span></span><span></span><span></span></span></code></pre><pre><code>Net(  (conv1): Conv2d(1, 6, kernel_size=(5, 5), stride=(1, 1))  (conv2): Conv2d(6, 16, kernel_size=(5, 5), stride=(1, 1))  (fc1): Linear(in_features=400, out_features=120, bias=True)  (fc2): Linear(in_features=120, out_features=84, bias=True)  (fc3): Linear(in_features=84, out_features=10, bias=True))</code></pre><p>在模型中必须要定义forward函数，backward函数（用来计算梯度）会被autograd自动创建。可以在forward函数中使用任何针对Tensor的操作</p><p>net.parameters()返回可被学习的参数（权重）列表和值</p><pre class="line-numbers language-python"><code class="language-python">params <span class="token operator">=</span> list<span class="token punctuation">(</span>net<span class="token punctuation">.</span>parameters<s
…
